chainer/my_mnist.model (npz, 333915 bytes, 6 tensors)

l1/W f4 [100, 784]
00000000: 7e57 1fbc f780 a7bd 45f6 a23b d46f e23c
00000010: 0da6 a33c 2453 fa3c 0872 95bb 9321 31bc
00000020: c467 f9bc 3567 8e3b b1aa 01bd 91e5 8f3c
00000030: d808 973c 0214 d8bc 4c90 933b 3e6a ffbb
00000040: 36e1 8dba 7ffc f13c ae5f cf3c 2d84 3dbd
00000050: 3dde de3c 5b3d 423d 0aa7 6ebc b2a6 003d
00000060: ad94 fe3c 784a 38bc 1c1e e8bb f5d4 a63c
00000070: 5f12 97bd 872f babc deb8 4ebd 0c02 ea3c
00000080: 5094 99bc 0123 643c 8c87 d73c 0ff6 bbbc
00000090: 8204 613d c414 30bd e8f0 10bc 2c56 4b3c
000000a0: 8685 0dbc cc42 313b 07c9 d53b abfc 0dbd
000000b0: 4bd5 bebc 1e0f 893b 7676 65bc 4ee5 39bd
000000c0: c420 bcbc 00eb adbd e7a3 3abd 74cf 793d
000000d0: 8f0c 50bc 63bc 5fbd 32ed 35bd 9614 10bd
000000e0: 9ee9 d5bc 7e37 dab9 f15c 963c 7f33 c73b
000000f0: 6090 033c cbe0 3b3c cf15 8e3c e952 e1bb
00000100: 4c30 db3c 225b aa3d f50d cb3c d8af bfbb
00000110: acb0 243d 1025 6e3d 50ed 56bd 1522 a33c
00000120: 2b3e 073c 4375 893d 3e49 81bb 1398 b43c
00000130: a583 9ebd 9f5e fa3c d3fc a1bd b25a 23bd
00000140: fc35 52bd 3067 4c3c 56fa 69bd a6b5 38bd
00000150: a3a9 1bbd 1b93 393d a156 fabc 8569 6fbd
00000160: 1e4b 32bd df82 dc3c 1772 ce3c a2fb fe3a
00000170: 79cc 573d 23a3 01bd 0c93 a5bd b501 4b3d
00000180: 908d 5d3d 4873 563d 193f 9ebd b068 7f3c
00000190: f123 69bc dfd2 56bc c031 743c 266b 25bd
000001a0: 633a 383d f47f 99ba 1149 17bd 0dcb d53b
000001b0: 1be1 623d 0024 e63c ffa9 7d3c bb89 e63b
000001c0: f3b0 b43c dd8a 8dbc b3b7 053a fc0b 343d
000001d0: ff41 d93c 507a ce3c 33ef 4cbc 4ad2 c73c
000001e0: 9a71 673c edb3 5abc 09be a0bc 1ac8 1c3c
000001f0: 7436 d53c ef93 67bd ed81 c03c c2e8 b5bc
00000200: d3c1 f6bb c4f5 8f3d 9fbc 74bd 345e 60bc
00000210: cfb4 8f3d eb0d 07bd fd08 623c 1650 39bc
00000220: 1b8f e53b 66a7 053d b167 32bd b24b 73bd
00000230: c0bb 723a 16e9 32bd 6362 26bc 6108 3b3c
00000240: 9456 0dbc b307 95bb 328a 41bd f152 3d3d
00000250: bec6 8e3d 3b5d 863d dc6a 9a3c 42d4 403d
00000260: cc0e 32bd 2cda c9bc ca1c 2f3d 5cee fb3b
00000270: 310e 93bc 8ee3 483d 0a4e 553d 583e 513d
00000280: e22d 30bb 95d9 2e3b e74e 45ba 19cf 9fbd
00000290: 24cb 20bd bbf2 2c3c 075e 2c3d e538 70bc
000002a0: 1691 ff3c 0415 8ebc 412a 063b 0507 c1bc
000002b0: 875a 2b3b 091a 6ebd e0f2 cdbc 9ff9 e3bc
000002c0: 68ca 32bc 671a acb8 602a c23b 1b3a 3cbd
000002d0: d119 733b c976 e23b ed24 68bc 7584 323d
000002e0: 03c1 d3bb 1d47 923d 8092 973b 7096 a83c
000002f0: 16e6 d53b 350c bb3c 1a38 213a 5c3e cabc
00000300: 2fa2 613c 66de 783d 6b28 df3a d8fc f03c
00000310: 3825 923a b627 3bbc fbe0 a23d 5289 68bc
00000320: fc04 c3bb da58 33bd 2d49 773c b9db b4bc
00000330: 5306 993c 12f4 51bc da81 c0bd 0d2e 46bd
00000340: dc4e cabc 7f49 a0bc afd8 2dbd f567 38bd
00000350: 9c4d e0bc 7a9a a23c 708b 71bd 872e 223d
00000360: ed04 e53b d274 7f3c f165 043d 6531 0c3b
00000370: 765a aabc 1594 b5bc 47e2 983c 3948 8e3d
00000380: b852 893b ec81 e6bc e114 8b3c 59c8 8abc
00000390: 5e0a fd3b 9599 bd3c c469 033d 3ea7 0e3d
000003a0: ac07 6f3d 41a1 153d 154f 9abd 4af8 66bc
000003b0: a2e2 3e3d a2a0 14bd 8ebe bebc 561c adbc
000003c0: 2f95 33bc 79a2 d5bc 8832 b5b9 6061 4c3d
000003d0: 3293 933d 456a a73d 5eff 9a3a 574c 39bd
000003e0: 615b b8bc 68fd 223c cab7 c63c b812 a8b8
000003f0: 7501 b33c bb37 a3bc c789 0b3d eaff 7b3d
-0.00972545 -0.08178895 0.0049732053 0.027641214 0.01997664 0.030557223 -0.0045607127 -0.010811227
-0.030444987 0.0043457993 -0.031656925 0.01756552 0.018436834 -0.026376728 0.0045032855 -0.0077946475
-0.0010824564 0.029539345 0.025314178 -0.04626863 0.02720558 0.047421794 -0.014566192 0.031408973
0.031076754 -0.0112482235 -0.0070836674 0.020365218 -0.07376551 -0.02272774 -0.05046927 0.02856543
-0.018747479 0.013924361 0.026309751 -0.022944478 0.05493594 -0.042988554 -0.008846499 0.012410682
-0.0086377915 0.002704787 0.0065242085 -0.03466479 -0.023295065 0.0041827103 -0.014005294 -0.045384698
-0.022964843 -0.08492088 -0.045566466 0.06098886 -0.012698307 -0.05462302 -0.04441566 -0.035175882
-0.026112374 -0.00041621545 0.018354865 0.006079137 0.008030027 0.011467169 0.017344384 -0.0068763387
0.026756428 0.083181635 0.024786929 -0.0058498196 0.04020755 0.058140814 -0.052472413 0.019913713
0.008254568 0.06711819 -0.0039454987 0.02204517 -0.07739953 0.030562697 -0.079095505 -0.039881416
-0.051321015 0.012475774 -0.057123505 -0.04509511 -0.038003575 0.045306306 -0.030558886 -0.05845024
-0.04352867 0.026917873 0.025200887 0.0019453655 0.052685235 -0.03164972 -0.080846876 0.049562175
0.054090083 0.052356035 -0.07726879 0.015588924 -0.0142297605 -0.013111799 0.014904439 -0.040385388
0.044977557 -0.0011711107 -0.036934916 0.0065244497 0.05539046 0.028093338 0.015482425 0.0070354617
0.022057032 -0.01727813 0.00051009207 0.04395674 0.026520727 0.025204808 -0.012508201 0.024392266
0.014126206 -0.013348562 -0.019621866 0.009569192 0.026026942 -0.056537565 0.023499453 -0.022205714
-0.00753043 0.07029298 -0.059750196 -0.013694335 0.070169084 -0.032972258 0.013796088 -0.011310598
0.007005585 0.032630347 -0.04355592 -0.05939836 0.00092595443 -0.04367932 -0.010155293 0.011415572
-0.008626599 -0.004548037 -0.047250934 0.046221677 0.06971501 0.06560751 0.018849783 0.047077425
-0.043471143 -0.024640165 0.042752065 0.0076883268 -0.017951103 0.049045138 0.052076377 0.051084846
-0.0026882817 0.0026679982 -0.0007526711 -0.078031726 -0.03925623 0.010555918 0.04208186 -0.014662002
0.031197112 -0.017344005 0.0020471963 -0.023562917 0.0026146488 -0.058130298 -0.025140226 -0.02782899
-0.010912515 -8.206517e-05 0.0059254616 -0.04595385 0.0037094245 0.006911133 -0.01416896 0.043583352
-0.006462218 0.0714247 0.0046256185 0.020579547 0.0065276725 0.02283297 0.00061500224 -0.024687938
0.013771578 0.06075897 0.0017025595 0.02941744 0.0011150008 -0.011423042 0.07953068 -0.014192896
-0.005951522 -0.043785907 0.01509313 -0.022077428 0.018679773 -0.012814539 -0.09399767 -0.04838376
-0.024695806 -0.019566296 -0.042442974 -0.045021016 -0.027380757 0.01984905 -0.05897087 0.039595153
0.0069891126 0.015591817 0.03232378 0.0021391746 -0.020795088 -0.022165338 0.018662585 0.06947369
0.004190769 -0.028138123 0.01697773 -0.016941236 0.007722183 0.023144523 0.032083288 0.034827463
0.058356926 0.036530737 -0.07534615 -0.014097283 0.046602853 -0.036286004 -0.023284223 -0.021131676
-0.010960861 -0.02607845 -0.0003456066 0.04989755 0.0720581 0.08174566 0.0011825373 -0.04523882
-0.02250451 0.009948112 0.02425756 -8.014351e-05 0.02185128 -0.019924035 0.03406694 0.061523356

l1/b f4 [100]
00000000: 1756 c9ba ab0f 223d 43c3 db3b 4328 b93c
00000010: dd30 933c e94d fbbc cde9 e2bc dc66 b93c
00000020: ea57 d63c f827 bcbc aad5 2d3d 5b2c 4a3d
00000030: 91c8 87bb 4105 cb3d 58b7 91bc c7fe 39bb
00000040: 1134 4d3d 7493 a63c de43 473d e164 273d
00000050: d381 023d be2f 123c e4e1 fe3b 4c24 013d
00000060: df51 c93c 792c e63c eebf 013d 671a 20bd
00000070: 71d3 b43c 6e97 633d 5f86 f439 51bb 833c
00000080: e8b0 4bbc 3b5b 503d 534d 363d 250d 8dbb
00000090: 0cb4 293c 1ba1 9abb cd0e 04bd ea31 173d
000000a0: e8a7 8d3c 2694 893c a3dc 843c 404a d33c
000000b0: c30a 3e3d b9e9 df3c 8425 923a 14df aa3d
000000c0: bb6c f63c ccdb 923d 6a1e 35bd 3f46 df3d
000000d0: 394b 3d3d c8eb 01bc 4933 833d 54ad 5e3d
000000e0: e0f2 913c db28 d53c 88a8 1cbb 826e 5f3d
000000f0: 8da3 1d3d 8e47 053b 4acf b33c 43a7 613c
00000100: b571 023d 6a7b bf3c 215a 523b 8657 d43c
00000110: ab71 993c 58b6 b53c 0551 a73c 54c0 50bc
00000120: e13c 353d cdad b5bc 3ad0 183d 2abe 22bd
00000130: 1d20 033c 679a 113d b022 d939 f5d8 aabb
00000140: be1a 1f3d fcb8 493d 16a4 a33d 3fe2 5b3c
00000150: b226 c33c 7f23 09bc 6f68 9e3d 5361 ac3d
00000160: 4f7e a53b b34e 993c 701e 703d 1d60 35bd
00000170: eecd ebbb fcb8 dd3a 3e1c 013d 60cc 593c
00000180: 29f1 223d 2333 933c 85db 5d3d 33a5 243d
-0.001536074 0.039565723 0.0067066266 0.022602206 0.017967636 -0.030676799 -0.027699376 0.022632055
0.026164968 -0.022968277 0.042440094 0.049358707 -0.0041437824 0.099131115 -0.01778762 -0.002838062
0.050098483 0.020333983 0.048648708 0.04086769 0.03186209 0.008922515 0.007778393 0.031528756
0.024575172 0.028097378 0.03167718 -0.03908768 0.02207348 0.055564336 0.0004663942 0.01608053
-0.012432314 0.050868254 0.044507336 -0.0043045455 0.010357868 -0.0047189123 -0.032240678 0.036912836
0.017291978 0.016794275 0.016218489 0.025792241 0.046396982 0.027333127 0.0011150097 0.0834333
0.030081144 0.07170829 -0.04421846 0.1090207 0.046214316 -0.00792975 0.06406266 0.054364517
0.017816007 0.026020458 -0.0023904163 0.054548748 0.038486052 0.002033684 0.021949429 0.013772788
0.03184672 0.023374278 0.0032097178 0.02592064 0.018730959 0.022181675 0.020424375 -0.012741167
0.04424751 -0.022177601 0.037307955 -0.039732136 0.008003262 0.03554764 0.0004141531 -0.0052138516
0.038843863 0.04924868 0.07990281 0.0134206405 0.023822162 -0.008370279 0.07734763 0.084170006
0.0050504575 0.018714285 0.058622777 -0.044281114 -0.0071961796 0.0016916092 0.031521074 0.013293356
0.03978077 0.01796872 0.05416443 0.04019661

l3/W f4 [10, 100]
00000000: 7664 70bc e655 713d b31e ac3e 48c9 2c3e
00000010: c01f d33a a3fa 563a 085e 233e 3bdb 453d
00000020: 26bb b53d a10c cbbc 4b69 b53c b49d e23d
00000030: 1e71 cabe ae38 fabb 6101 193d 5b78 d73d
00000040: a1a1 8b3e 63a6 8fbd c8c1 3d3c c918 8dbd
00000050: 6583 0e3c 152b b7bc 8733 d93d 4863 7a3d
00000060: dbb9 433d a00a f8bd 45b5 1c3e 63f7 d63d
00000070: bed4 94be 538a adbd e1f6 a6bd 21a7 673d
00000080: 6409 3b3e 1ff2 12be 8352 10bb ad53 e63d
00000090: 8209 6abd 492c 16be 4540 2bbe 7743 06be
000000a0: cd98 17bd 1fba 053d 761b f9bc d156 3fbd
000000b0: d4e1 06be 1a18 f33d 5185 8f3d 5727 7b3c
000000c0: e000 52bd aa53 bf3e f0ce 2a3e 9089 ac3e
000000d0: 8c05 06be 390e c43d bb23 2d3e de80 23be
000000e0: 742b 44be bb67 b0bc d9e4 08bc 712a 683b
000000f0: 6e12 c3bd 3c3c f23c 02df 2b3e 5a05 1dbd
00000100: d080 a8bd 696a c6be dd08 ad3c ea3b 29bd
00000110: 02f9 ff3c 73c3 eebc da8a 72bd c5df 8dbd
00000120: f103 56be 071d 86be 7407 b93d e3a5 5e3c
00000130: ad0d 283e 7b85 c9bd 932b cdbd 0523 ffbc
00000140: 31d4 60be 3d0f 1f3e fcc2 aabe 281e 6dbe
00000150: eba6 35be 92b8 53be 4422 a13c 900f 54bc
00000160: 5634 e03d 3897 e7be 7980 cf3e b80d 843e
00000170: dc32 aebd fa57 863c 3b6c a23d f440 9f3d
00000180: f4cc dc3d 06f8 44bd 798a 8dbe d565 9d3e
00000190: 7cbd 533d c1c3 4fbd f48b 26bc f31e 45be
000001a0: f0d3 57bd 5c87 36be 0787 44bd d88f b23c
000001b0: f139 45bd 0cf7 743d 0d5a a4bd 4ee9 82bc
000001c0: 8b7d 7e3e d49a b2bd 8978 febd 2ffd 033e
000001d0: 9530 24be 7aac 903d 267e 8abd efdb 25bd
000001e0: 40bc c93c 2fce dbbd 83d5 ebbd 9f2e d4bb
000001f0: 3314 b8bc 6706 2d3e 1179 50bd c689 e6bd
00000200: ea54 523e 07aa 79bd 55a5 18be 1c5e 283c
00000210: e4c0 573e c359 d83d 02c4 9bbe 8663 f63c
00000220: f27b 533e 17e7 d0be b1bc 0a3b 4283 41bd
00000230: 3c67 ec3c 0971 89bd 5206 983e debb 88bc
00000240: 60e4 1ebe 5979 4ebd 1111 403e 5ad5 97bd
00000250: d172 2bbe 0847 47be 72e1 153e 5536 7fbe
00000260: 7484 69bd 583f ca3e fae3 a1bd 3f0c 10be
00000270: 9ac2 a5bd bcc8 2b3d bf82 06be b738 a63d
00000280: e169 78bd 5eb3 d7bb a7a2 3fbd d719 73bd
00000290: d542 5d3d a72e 9e3d 4368 3ebe c1e9 713e
000002a0: fe51 9fbe 52d5 bfbd 5ffe 303e a940 52bd
000002b0: 6eec 0e3f 08c0 70bd c938 a139 d71c e5bd
000002c0: 6641 3dbe 1c4e 4e3d 2b00 473c 138c 6abe
000002d0: 4ff6 063e 1773 8dbe 3b19 593e 9ea5 5e3d
000002e0: 2349 11be 570c 093e 905d a3bd 66ad 5b3d
000002f0: dd73 9f3c a32a ae3e d79d 2ebb eed3 7abe
00000300: 4fba dd3c e371 1a3c 0401 573e 3917 743d
00000310: 7972 d3bd 1819 cf3d 5a0c 833d eeaa e93c
00000320: 87bc 533e 8de0 8c3e 286d 8bbd fa0c 3e3c
00000330: e5cc f9bd d0ca 85bd 1be8 9bbd 6f03 82be
00000340: 6b3f 123e b62a a6bd 13f7 b03e 5045 13be
00000350: bbf1 e1bc 32e0 843e 006a 59bc 1b7e f1bc
00000360: 8810 29be b081 f7bd 7ca0 33be 419a 18bd
00000370: 5331 f1bd cfeb 11be 4b7e 643d 3e4f 31be
00000380: 3c91 0c3e a19e ebbd ec82 a5bd b32d 06be
00000390: 955a 1b3e aa67 9abd 0af1 a9bd 4851 153e
000003a0: 4726 6ebe 6916 843d 5082 043e a4df 09be
000003b0: f64b 2abe 4c4f 3fbe 1035 37be e7ec e2bb
000003c0: 2e74 37be f554 56bc af26 b73d 9ce2 02be
000003d0: 91f5 dfbd 331c c1bd f82e 0ebe aca9 90bd
000003e0: a5f3 793e 9d2a 903d bf8f 50bd 3b2c 223e
000003f0: 5727 02bd 0db0 183e 8dfd e53c a682 2abe
-0.014672389 0.05891981 0.33617172 0.16873658 0.0016107485 0.00082008 0.15953839 0.048304778
0.08873586 -0.024786295 0.022144934 0.11065236 -0.39539427 -0.0076361513 0.03735483 0.10521003
0.2727175 -0.070141576 0.011581846 -0.06889493 0.008698319 -0.02235941 0.10605531 0.06112984
0.047784667 -0.121114016 0.15303524 0.10496404 -0.2906856 -0.08473649 -0.08152557 0.05655587
0.18265301 -0.14350174 -0.0022021837 0.11246429 -0.057137974 -0.14665331 -0.16723736 -0.13111673
-0.037010957 0.032648202 -0.030408602 -0.046713654 -0.13172084 0.118698314 0.0700785 0.015329204
-0.051270366 0.37368518 0.16680503 0.33698702 -0.13088053 0.09573025 0.16908161 -0.15967128
-0.19157201 -0.021533838 -0.008355343 0.0035425688 -0.095249996 0.029569738 0.1678429 -0.03833518
-0.08227694 -0.3875306 0.02112239 -0.041316904 0.031246666 -0.029145932 -0.05921445 -0.06927446
-0.20899941 -0.2619402 0.09034625 0.013589355 0.16411467 -0.098399125 -0.10018077 -0.031144628
-0.21955945 0.15533157 -0.33351886 -0.23156035 -0.17739455 -0.20675877 0.01966966 -0.0129431635
0.10947482 -0.45232558 0.40527704 0.25791717 -0.085057944 0.016399372 0.079307996 0.07776061
0.10781279 -0.048088096 -0.2764471 0.30741754 0.05169438 -0.050723795 -0.010165203 -0.19250087
-0.052692354 -0.17825073 -0.047980335 0.021797106 -0.04815096 0.059805915 -0.08024988 -0.015980389
0.24852578 -0.08720937 -0.12425334 0.1288955 -0.16034158 0.07064147 -0.06762342 -0.04049295
0.024625897 -0.10732686 -0.115153335 -0.006475284 -0.02247057 0.16896974 -0.050896708 -0.11256747
0.20540205 -0.060953166 -0.14906819 0.010276344 0.21069676 0.10563996 -0.3042298 0.030076753
0.2065275 -0.40801308 0.0021169598 -0.047244318 0.02885782 -0.06711013 0.29692322 -0.016691145
-0.15516806 -0.050408695 0.1875651 -0.074137405 -0.16743018 -0.1946069 0.14636782 -0.2492307
-0.057011083 0.39501452 -0.07904811 -0.14067172 -0.08093758 0.041939482 -0.13135813 0.08116286
-0.06064785 -0.0065826615 -0.046785977 -0.059350815 0.054018814 0.07723742 -0.1859446 0.23624326
-0.31117243 -0.093668595 0.17284535 -0.051331196 0.55829513 -0.058776885 0.0003075062 -0.111871414
-0.18481979 0.05036746 0.012146036 -0.22904997 0.13179897 -0.2762687 0.21201031 0.054357164
-0.14188056 0.13383614 -0.0797683 0.053632163 0.019464428 0.34016904 -0.0026644373 -0.24494907
0.027066378 0.009426567 0.20996481 0.05959246 -0.10324568 0.10112208 0.0639884 0.028523888
0.20677386 0.2751507 -0.06807929 0.011599774 -0.12197284 -0.06532824 -0.0761263 -0.25393245
0.14282005 -0.08113615 0.34563503 -0.1438191 -0.027581086 0.25952297 -0.013269901 -0.029479077
-0.16510212 -0.12085283 -0.17541689 -0.037256483 -0.11776986 -0.1425011 0.055784505 -0.17315385
0.13727278 -0.115048654 -0.08081612 -0.1310337 0.15171273 -0.075393036 -0.08297928 0.14581788
-0.23256789 0.06449587 0.12940335 -0.13464218 -0.1663054 -0.18682593 -0.17891335 -0.0069252136
-0.17915413 -0.013081779 0.08942925 -0.12781757 -0.1093551 -0.09429207 -0.13885105 -0.07063612
0.2440935 0.07039378 -0.050918337 0.15837185 -0.0317758 0.14910908 0.028075004 -0.16651401

l3/b f4 [10]
00000000: 5b91 ddbd 79a3 c83d a66b e9bc 95eb 0bbd
00000010: 1de4 803d 8ce0 083e f51c 7bbd c6f0 483d
00000020: 964a 06be 2011 a13c
-0.1081874 0.09796805 -0.028493714 -0.034160215 0.06293509 0.13366908 -0.061306912 0.049057744
-0.1311439 0.019661486

l2/W f4 [100, 100]
00000000: 81d6 32bd 30a4 bd3c 5eef 03be 7318 363b
00000010: 76fa 8b3c 95bc e6bd cf19 fbbd ab56 d43d
00000020: 4198 4abe dfdf 1dbd d703 0b3d 13ad 65bd
00000030: c525 983d ad63 df3d 1ca8 913c 453c 063e
00000040: bf11 babc 4e0b 20be f5b0 2b3c e5b0 3d3d
00000050: 4c82 9ebd 1753 2f3d 8d62 61bd 2cdb bfbd
00000060: 2751 253d 56a6 c13d 5cf4 b33c 1862 bd3d
00000070: 915b e0bb c913 32be 21be 323e 2204 173d
00000080: d5f5 5b3e acec c83d 4159 063e 6b96 2c3d
00000090: 7d13 4d3a e4f8 443d 8657 053e 8615 14be
000000a0: 2d23 833b bce4 b23d 7383 00bd d17e debd
000000b0: 2cc5 05be 6f52 57bd 74a8 0abe 096a 123c
000000c0: cd15 38bc 6ab3 29be 52ff b8bb 6b3c 01bd
000000d0: e4de 233e aa2a ac3d 24b7 49bd 7361 c03d
000000e0: dae8 9d3d a08e c93d 6f9e 993c 541f b83a
000000f0: 5900 113d 0845 65be c76b 283e f03f b73d
00000100: 5aac bfbd 43fb f8bd da41 ff3d 25f4 6d3d
00000110: a4d3 513d dfcb 613c 75d6 133d 814c 4ebd
00000120: e06c eb3d 8696 353e 5f05 b93e 76c2 95bd
00000130: 3c9c 043d f897 65be 3d7e f2bd 3db1 fcbd
00000140: 7029 41bc 587a 99bd 20fc bcbd 2c7c 97bc
00000150: 8a8d 2c3e b8e4 33bd 48d4 51be 9aab d13d
00000160: 5734 223d e87a 0dbe 643c 59bc 15e6 bcbd
00000170: 8cf3 5abb 5f14 a4bc 9095 f63d c53d a93d
00000180: 7dd1 c53c 3d4b b73d a3af 89bd b128 50b9
00000190: b3b5 cbbd e968 5e3d 393d 15be 1e0c 033d
000001a0: a57e 33be 8f82 1b3d eef2 ca3c c8b5 89bd
000001b0: b8e4 4c3c 10aa 0f3e 3731 a5bd 0116 69bd
000001c0: 42e4 fa3d 9226 473e 1016 19bd 3204 1e3d
000001d0: d34b 57bc 6a8d f63d 6d5e 023e 97cc 953a
000001e0: 8595 05be b1cf 85bd 5e0d b63d 2e07 0c3e
000001f0: 710a b2bd 31be 513e 1cd3 923c cd05 8abd
00000200: ee0d 943e 30fb 1fbd 0399 5cbd d64c 39be
00000210: 1ff9 083d 2d65 19bb b347 cebd d4d6 e0bd
00000220: 6619 7f3b 8e24 923d 7e40 39bd b6e2 a03d
00000230: f59e 2a3d c227 07be c175 1cbd c086 c0bd
00000240: e7d1 abbd b9cc c13b 4e1f f6bc b969 2f3d
00000250: 368d 4fbd 2df8 013d 98b3 6dbd 1f79 54bd
00000260: 8902 d1bd fa5c 4a3d 10ba 9abd a0be 0b3e
00000270: c133 2cbe 9442 113e acd4 573c afb1 2f3d
00000280: cd7b 693d 61ce 5cbc 1058 6f3d 217d 5e3d
00000290: 9ddc aebd b75d 37bd 2b2f 9fbd 7640 5ebd
000002a0: 3f7f b8bc 74a1 02bd 6f39 c33d 6466 10bd
000002b0: 3715 f63d 870a 003e 5419 ae3d aeff e6bd
000002c0: 00cf b93d b3ec 70bd 68ce 363d c6fa b83d
000002d0: 33aa 093e adf7 593e fa44 b1bd 9973 91bc
000002e0: c638 adbd 80c0 5abe a6dd 44be 5745 d43d
000002f0: cd54 ca3d 398f c03c 14e6 1c3e 41a5 b4bc
00000300: 455c c6bd 6a37 d03d 6608 d3bd 988f a33d
00000310: ea70 10be f019 70bd df09 c63d 6d30 743e
00000320: 4143 213d b889 34bc 63f8 d83d 3215 1f3d
00000330: 4977 e83c 0c73 4b3e a5f8 15be 335c 013e
00000340: f585 023e 4836 193e 757b d4bd 2b5e cf3d
00000350: ff7f 3dbc 9612 e73b 35cc d83c 7269 b7ba
00000360: 14a5 acbe 15ce 5e3e c911 edbd d67c 0b3e
00000370: 4756 bcbd a14a 78bd 4b43 9ebd cb36 c0bc
00000380: 93c3 a5bc 350f 373c ba99 88bc 24bd 683e
00000390: 9ad6 c4bd ce91 08be 68b0 51be 7689 16be
000003a0: 2078 de3d 4719 6bbd c7c9 b3bd 28fa 843c
000003b0: 3ec7 89ba c3bc ebbd d9f7 583d 9b52 cd3d
000003c0: bf84 923d aa48 cd3b d699 94bc 6fc2 863d
000003d0: 17b3 84bd 5d18 9b3d 47c3 c83a 1903 303e
000003e0: fcc6 473e ab28 e23d 0d14 a83d 346f 02bd
000003f0: 8bee d63b 9076 873d dc5e 1d3e 516a 953d
-0.043661598 0.02314958 -0.1288428 0.002778557 0.017087203 -0.11266438 -0.12260782 0.10368093
-0.19784643 -0.03854358 0.03393921 -0.05607326 0.07429079 0.109076835 0.017780356 0.13108929
-0.02271354 -0.15629312 0.010479202 0.046311278 -0.07739696 0.04280385 -0.055025626 -0.093679756
0.040360596 0.09455554 0.021967106 0.092472255 -0.006846853 -0.1739036 0.17455341 0.036869176
0.21480496 0.098107666 0.13119985 0.042135637 0.00078230334 0.048088923 0.13021669 -0.14461336
0.004001996 0.08735034 -0.03137536 -0.10864032 -0.13063496 -0.05256885 -0.13540822 0.008936414
-0.011235666 -0.16572347 -0.005645671 -0.03155176 0.16002995 0.08406575 -0.049246922 0.09393587
0.077104285 0.09841657 0.018752305 0.0014047422 0.035400722 -0.22389615 0.16447364 0.08947742
-0.09359045 -0.12157299 0.12463732 0.058094162 0.051227227 0.013781517 0.036093194 -0.05036593
0.11495376 0.17733201 0.3613691 -0.07312481 0.03237556 -0.22421253 -0.11840484 -0.12338493
-0.011789665 -0.07494038 -0.092277765 -0.018491827 0.16850868 -0.043919295 -0.20491135 0.102378085
0.039600696 -0.13816416 -0.013259027 -0.09223572 -0.0033409325 -0.020029245 0.120402455 0.08263735
0.024147743 0.089498974 -0.06722953 -0.00019851585 -0.09946766 0.05429927 -0.14574136 0.031993978
-0.1752878 0.037966307 0.024774041 -0.06724125 0.012505703 0.14029717 -0.080660276 -0.05690575
0.12250568 0.19448307 -0.037374556 0.03857822 -0.0131406365 0.12038691 0.12731333 0.001142877
-0.13045318 -0.065337546 0.08889268 0.13674614 -0.08693398 0.20482709 0.01792293 -0.06739388
0.28916878 -0.03905791 -0.05385686 -0.18095717 0.033440705 -0.0023406253 -0.10072269 -0.10978475
0.003892505 0.071358785 -0.04522752 0.07855742 0.0416555 -0.1319876 -0.038198236 -0.094007015
-0.08389645 0.0059142974 -0.030044224 0.042825434 -0.05067178 0.03173082 -0.058032602 -0.051873323
-0.10205562 0.049405076 -0.0755502 0.13646936 -0.16816618 0.14185554 0.0131732635 0.04289406
0.05700283 -0.013476939 0.058433592 0.05431855 -0.085381724 -0.044767108 -0.077726685 -0.054260693
-0.022521613 -0.031892255 0.09532439 -0.035253897 0.12015765 0.12504016 0.08500925 -0.11279236
0.09072685 -0.058819484 0.044630438 0.09032206 0.13443832 0.21285887 -0.08655734 -0.017755317
-0.08458094 -0.21362495 -0.19225177 0.10364788 0.09879456 0.023505794 0.15322143 -0.022051455
-0.09685568 0.101668194 -0.10304336 0.07986373 -0.14105573 -0.058618486 0.096698515 0.23846598
0.03937078 -0.011019163 0.10594251 0.038838573 0.028377192 0.19868106 -0.14645632 0.12632827
0.12746413 0.14962113 -0.1037511 0.10125383 -0.011566161 0.007051776 0.026464561 -0.0013993217
-0.33719695 0.21758302 -0.11575658 0.1362184 -0.091961436 -0.060618047 -0.07727679 -0.023463627
-0.020234859 0.011173059 -0.016674865 0.22728401 -0.096112445 -0.1333687 -0.2047745 -0.14700875
0.10862756 -0.057397153 -0.0877872 0.016232565 -0.0010511649 -0.11510613 0.05297074 0.10025521
0.071542256 0.0062647657 -0.018139761 0.06580054 -0.06479471 0.07573006 0.0015316986 0.17188682
0.195095 0.11042913 0.082069494 -0.031844333 0.0065591983 0.06614411 0.15368217 0.07295669

l2/b f4 [100]
00000000: 7f87 883c ceff 003d 5626 45bd 8cb5 d43c
00000010: a8e0 5bbc 2d41 0abc d392 ac3c 99ac 2fbc
00000020: 9056 933c f835 d53c 74a7 3c3d a3a2 da3b
00000030: 7363 b13c 70a3 a9bc 79fd 693d ce5e b83c
00000040: 8946 c43b 00c3 02bb 097f e93c 9a75 edba
00000050: 233b 293d d8cb 593d c085 183d 2e77 8239
00000060: 32e8 aabc 9654 873d 3c88 0c3b 4287 703c
00000070: 6a10 263d 94f8 a33d e4ee 0e3c a213 28bc
00000080: 6e6e a73d 8476 803d 1890 a73b 936b 913a
00000090: f852 7eb8 ade8 9b3d 2b04 333b 6422 283c
000000a0: cc62 39bb 4723 e8bc b3d3 0d3d 0d6a 01bc
000000b0: 56d4 95bc b693 4539 57d4 723d b0d9 b8b5
000000c0: d37f 333b babb 7d3d 8e11 153d b7f8 91bc
000000d0: 3875 8d3c 4920 ed3d ccdf 98b9 73d1 c13c
000000e0: 5315 0f3d 9bd0 193d 42bd 8bbb 268f 5d3c
000000f0: a813 133d 7612 33bc 887e 2d3d 4031 a43b
00000100: 4cc9 3f39 67e9 e83d ee7b 093d afbe 273d
00000110: 93da e5ba df04 18bb 912b fe3b 4984 4e3c
00000120: c6c9 d83d 0940 873d 43ed 73bb 741a 973b
00000130: 103b 833c f2bc 663c 287d 853c a503 773c
00000140: 1dff 2abd d0bd 6f3c a4de 9e3d eb38 12bc
00000150: 5c73 81bc d064 ec3c 180e 173b 374e bb3b
00000160: cad5 943b cd6c 0e3d 5d95 1cbd 725d 01bd
00000170: f26e 073c 31c9 e53c 36fd 8d3d d669 14bb
00000180: 9b6e 043d 5f65 91bb 831b 213d 1750 7f3c
0.016666172 0.031493954 -0.048132263 0.025965475 -0.013420261 -0.008438391 0.021066105 -0.010722303
0.017985612 0.02602671 0.046058133 0.00667222 0.021653866 -0.020707816 0.057126496 0.022506144
0.0059898538 -0.0019952655 0.028502958 -0.0018116713 0.041316163 0.053172916 0.03723693 0.00024884328
-0.020862672 0.0660793 0.0021443507 0.0146806855 0.040542997 0.08006397 0.008723948 -0.010258587
0.0817536 0.06272605 0.005113613 0.0011094682 -6.063559e-05 0.07612739 0.0027315717 0.010262106
-0.0028287647 -0.028337134 0.03462572 -0.00789882 -0.018289726 0.0001884241 0.059284534 -1.3772424e-06
0.0027389422 0.061946608 0.036393695 -0.017818792 0.017267808 0.115784235 -0.0002915844 0.023659443
0.034932446 0.037552457 -0.0042645046 0.013522899 0.035907418 -0.010929694 0.042356998 0.005010754
0.00018290168 0.11372643 0.033565454 0.040953334 -0.0017536454 -0.0023196263 0.0077566584 0.012604781
0.1058536 0.066040106 -0.0037220276 0.0046113078 0.016019374 0.014083134 0.01629503 0.0150765525
-0.0417472 0.014632657 0.07757309 -0.008924703 -0.015802078 0.028856665 0.0023049172 0.005716111
0.004542087 0.03477173 -0.03822838 -0.031583257 0.0082661975 0.028050037 0.06933062 -0.002264609
0.032332044 -0.004437133 0.039332878 0.01558306
